cache/model.Model.cache.pt (torch, 3777 bytes, 3 tensors)

0.weight f4 [64, 2]
00000000: 1db1 8b3e 989d de3e dc31 3bbf 6674 4e3e
00000010: f6b0 213f 4ab4 e43e 676b d2be 8249 473f
00000020: 5943 14bd de31 1a3f b7e0 343f e99d d8be
00000030: 3bd0 d93e 45df c5bc 80a4 643d 4420 63be
00000040: c81f 863e ec64 0cbf 5821 06bf e8ba 16be
00000050: 1e4c d7be 5cc4 ce3e bce1 4bbe 8d0e dbbe
00000060: a8ac 2dbe 97fb 95be 56a1 dcbe 0028 dabe
00000070: 087a 0a3e 73cb 22bf d24e 77bd d181 7b3e
00000080: 93b7 263f b0f9 23be fab6 14bf e007 b1bc
00000090: 0f59 d7be 41fc 003f f21d a43e 78e1 e7bd
000000a0: 6966 083f e51b eabe 3198 ec3d d042 f13e
000000b0: dd42 90bd c451 e13e 00ed 80bb e072 34bf
000000c0: 2ea9 133f 1433 cf3e 862b 06bf 771c e7be
000000d0: 18e5 c8be 93f0 063f f711 1ebe 7489 1c3e
000000e0: 0357 323f 969f 0a3f 94c7 02bf 1a95 b13e
000000f0: 6519 593c aa20 213f 7fb4 5c3e 904a 8f3e
00000100: b862 92bd 1891 c7be fe5c 66be 0d47 abbe
00000110: 6043 64bd 208d 80bc 41ad 093f 01ac 383f
00000120: 58d6 0f3e 329b 13bf 82f3 ddbe e126 2dbf
00000130: b342 2ebf 5d33 2ebf 8431 a23d 1e07 e43d
00000140: 7beb 073f 3085 96be 384e 853d dc97 23be
00000150: 006d a4bc 87fd 98be 358c 1a3f 489b d1bd
00000160: d881 d23d 4530 18bf 74c6 fc3e c4cb be3e
00000170: 8da1 c73e 5215 133f 5498 acbe 62aa aebe
00000180: 931b 9e3e 9b53 a93c 548d 45be 75e2 9c3c
00000190: b4cc 02bf 8dba 953e ae51 0cbf e177 02bf
000001a0: 8635 53bc ff0e 343d fe03 ed3e 73a3 de3e
000001b0: d094 4dbd 58b3 35be 0755 063f 7903 0f3f
000001c0: b07f 763e 0fca 2cbf f44d 26be 88b6 e8bd
000001d0: ea1f a73e bcce 873e b2bf c83e ec09 1cbf
000001e0: fbe7 c6be 5da1 983e e402 0b3e 48b2 5bbe
000001f0: 9e85 9fbe da2d 653d 0fe5 2a3f d339 de3e
0.27283564 0.4347961 -0.73122954 0.2016159 0.63160646 0.446688 -0.41097566 0.7784654
-0.03619704 0.6023234 0.7065539 -0.42307976 0.4254168 -0.024154315 0.055820942 -0.22180277
0.26196122 -0.54841495 -0.5239463 -0.14719737 -0.4205026 0.40384185 -0.1991033 -0.4278454
-0.16960394 -0.2929351 -0.4309184 -0.42608643 0.13523114 -0.6359169 -0.060377903 0.2456124
0.6512386 -0.16013217 -0.580917 -0.0216102 -0.42060134 0.5038491 0.32054096 -0.113223016
0.53281265 -0.45724407 0.11552466 0.47121286 -0.07044003 0.44007695 -0.0039345026 -0.70487785
0.5768002 0.40468657 -0.5241016 -0.45138904 -0.39237285 0.5271084 -0.1543654 0.15286809
0.6966402 0.5414976 -0.5108578 0.34684068 0.013250683 0.62940466 0.21553229 0.27986574
-0.07147735 -0.38977885 -0.22496411 -0.33452645 -0.055728316 -0.015692294 0.5377999 0.7213746
0.1404661 -0.57658684 -0.43349844 -0.6763745 -0.68070525 -0.68047124 0.079196006 0.1113417
0.5309369 -0.2939849 0.0650906 -0.15975899 -0.020071507 -0.29880926 0.6037019 -0.10234696
0.10278672 -0.59448653 0.49370158 0.37264836 0.3899044 0.5745441 -0.33709967 -0.34114367
0.30880412 0.020669749 -0.19292194 0.019150952 -0.510936 0.2924389 -0.54812133 -0.5096417
-0.012891179 0.043959614 0.46292108 0.43484077 -0.050190747 -0.17744195 0.5247349 0.55864674
0.24072146 -0.67495817 -0.16240674 -0.1136294 0.32641536 0.26524913 0.39208752 -0.6095264
-0.38848862 0.2981061 0.13575321 -0.21454728 -0.3115663 0.05595193 0.66755766 0.4340349

0.bias f4 [64]
00000000: 4ca1 473f 1318 2cbe fcb5 91be 82ae 2e3f
00000010: 8fa6 343f 306c a6be e607 34bf 45df 2b3f
00000020: a251 babe 9205 a63e 57ef b9bd fed7 1ebf
00000030: dc36 20bf d3e4 cabe b7dc eabe a49b f6be
00000040: c229 b23e 3055 1ebf 4d7a 18bf 4001 82be
00000050: 4034 603e c345 30bf f18e 0d3d 10b6 efbe
00000060: 311e 9b3e e058 98bc 50b1 593e 3ca0 cc3e
00000070: 5ee6 363f b138 003f 8d48 943e f6bf a13e
00000080: 309f 36bd bd31 ecbe 85de 10bf a3ea 663e
00000090: 060a 29bf 8f8a 283f bb62 273f 693a 0d3f
000000a0: da7d f13e 58cb 38be 1cbe 763e f8c0 f83d
000000b0: 6aa1 f13e f7ae da3d cdd4 e33d c097 a2be
000000c0: f786 4f3e ed96 a63d 6ab5 85bc e390 203f
000000d0: f7a4 72bd 47b0 b03e dc67 8a3e 74f0 2d3f
000000e0: 04ce 99be 3a43 ecbe 6bbc 1cbf 163a 903e
000000f0: cace 353f d5b6 1b3f 6222 ff3e a12c a53e
0.77980494 -0.16806059 -0.28459156 0.6823503 0.7056665 -0.32504416 -0.7032455 0.6713756
-0.36390406 0.32426125 -0.090788536 -0.6204833 -0.6258371 -0.39627704 -0.45871517 -0.4816562
0.34797484 -0.61848736 -0.59561616 -0.2539158 0.21894932 -0.6885645 0.034560148 -0.4681859
0.30296472 -0.018597066 0.21259046 0.39966 0.7144526 0.50086504 0.28961602 0.31591767
-0.044585407 -0.46131697 -0.5658954 0.22550444 -0.6603092 0.65836424 0.65385026 0.5516725
0.4716633 -0.1804632 0.24095958 0.12146181 0.47193462 0.10677903 0.11124573 -0.317564
0.20266329 0.081342556 -0.016321857 0.6272108 -0.059239354 0.3450949 0.27032363 0.6794503
-0.3003999 -0.4614504 -0.61225003 0.28169316 0.7101866 0.60825855 0.4983092 0.32260612

2.weight f4 [1, 64]
00000000: b09d f83d ecb0 fdba 6857 9dbc 74d9 383e
00000010: ebb2 843d ba83 aa3d 6943 2cbd e880 f9bd
00000020: 5cba 3dbd 00d3 78bd 58b2 053d 50c0 90bc
00000030: b0b4 683c b89c 68bd e07a be3c dff0 5d3e
00000040: 9014 acbd d259 82bd 33f5 cb3c 7ef4 ccbd
00000050: d858 abbc 8b19 f6bb edc4 b43d 0069 78bd
00000060: 4814 f7bc 70a2 233c 7b2d bd3c d767 53bc
00000070: 56b9 443e e952 f3bc 1e6d 053e 8569 253d
00000080: a252 f6bd c091 a8bd e039 b03c 1b70 023e
00000090: 208c fd3d 82e2 8c3d c479 1a3d 9b9c 6e3e
000000a0: 0254 e9bd e2b3 b7bd 2207 8bbd c8d2 99bc
000000b0: 3c91 15bd e9d6 80ba 804f 623e 58bc 86bc
000000c0: b787 453d 2ffb 89bd a2dd 9e3d 8422 01bd
000000d0: 72f3 0cbd 232e 9a3c 00cf f5bc 0bd7 2f3e
000000e0: 80cd ff3b 5020 513d 56c0 553d 2443 dbbd
000000f0: f56d f23d c4e9 d7bd bc0b 81b8 1a2c 403e
0.121394515 -0.0019355095 -0.019206718 0.18051702 0.064794384 0.08325906 -0.042056475 -0.1218279
-0.046320304 -0.0607481 0.032640785 -0.017669827 0.0142032355 -0.056790084 0.02325195 0.21673916
-0.084023595 -0.06364788 0.024897194 -0.10007571 -0.020916387 -0.007510369 0.08826623 -0.06064701
-0.030161038 0.009987459 0.023092976 -0.012903175 0.19211325 -0.02970262 0.13029906 0.040383834
-0.1202748 -0.082309246 0.021511972 0.12738077 0.12380242 0.068791404 0.03771378 0.23301928
-0.11392976 -0.08969857 -0.0678847 -0.018777266 -0.03651546 -0.0009829673 0.2210064 -0.016447231
0.04822513 -0.067373626 0.07757117 -0.031527057 -0.034411855 0.018820828 -0.030005932 0.17171876
0.00780648 0.051056206 0.05218538 -0.107061654 0.11837379 -0.10542634 -6.153385e-05 0.18766823
